dqn/solution/checkpoint.pth (torch_old, 21023 bytes, 6 tensors)

fc1.weight f4 [64, 8]
000000 26 18 8c bd 43 9b a8 3e 31 81 78 3e 02 54 80 3e
       -0.068405434 0.32930955 0.24268033 0.25064093
000010 52 4a dc 3e 2d 3f 2f be 54 80 b4 3e 66 2b 00 3f
       0.43025452 -0.17113943 0.35254157 0.5006622
000020 d7 b5 51 be d9 76 6e be d8 58 39 3f 95 14 d2 3f
       -0.20479523 -0.23287524 0.7240119 1.6412531
000030 56 5a 15 bf 75 a2 b8 be d3 46 9d bd cb f3 f3 3e
       -0.58340967 -0.36061445 -0.07679524 0.47646937
000040 fc 98 ee bd 29 10 96 3d 9e fc 1d 3f 59 80 27 3f
       -0.11650273 0.07327301 0.6171359 0.6543022
000050 a4 02 f6 3e a6 d6 24 3f 97 d8 4d 3e 7d 26 c4 3e
       0.4804889 0.6439003 0.20102154 0.38310614
000060 77 aa 4a bc e4 5c 8c 3f 61 1d 5c 3f df 83 a0 bf
       -0.012369744 1.0965848 0.8598233 -1.2540244
000070 99 a7 a1 bf ce 10 63 3e 31 1f 9a be 0b d8 db bd
       -1.2629272 0.22174379 -0.30101922 -0.10734566
000080 11 27 28 bf 13 9d a6 bf 51 a7 5b be 87 6c be be
       -0.6568461 -1.3016685 -0.21450545 -0.37192175
000090 35 87 27 bd b9 3e 81 3e d3 da 05 3e af 47 60 be
       -0.040900428 0.25243166 0.13071756 -0.21902345
0000a0 f0 ec 04 bf c0 ca 95 bf 76 0d 85 3e f8 08 30 bf
       -0.5192404 -1.1702499 0.25986832 -0.68763685
0000b0 b2 53 d0 be 5c 8c 0c be 1d 2e 6c 3e d3 b3 44 3e
       -0.40688854 -0.13725418 0.23064466 0.19209222
0000c0 52 01 e0 be 03 6b a0 3d 62 0a 94 3e 08 90 9c bd
       -0.43751007 0.07832911 0.2891417 -0.07644659
0000d0 e6 76 77 3e 96 82 a8 3e d2 f6 7c 3e 6f 6c 94 bf
       0.2416645 0.3291213 0.2470353 -1.1595591
0000e0 60 b2 e5 3c 51 cf 52 bf df 73 02 bd 5a 1a 85 bf
       0.028039157 -0.8234759 -0.031848785 -1.0398667
0000f0 6d be a5 3e 09 eb 0f be ab 39 33 3e 35 50 dc 3d
       0.32371846 -0.14054503 0.17502467 0.10757486
000100 17 7b 05 3d 85 83 fc bd c8 e2 2b bc 65 f1 a3 bd
       0.03258809 -0.12329773 -0.010491081 -0.08005027
000110 7a 80 93 3d 7e 3d 80 3f c7 21 bc bd 60 30 46 bf
       0.07202239 1.0018766 -0.0918613 -0.77417564
000120 63 d1 29 3e ae 8f 00 3f 4f 76 05 3f 6a 5f fa 3e
       0.16583781 0.5021924 0.5213365 0.4890092
000130 a8 b7 3d bf a3 40 9e be 37 76 48 bf 13 d7 a9 be
       -0.7410836 -0.3090869 -0.7830538 -0.331719
000140 e8 ff 20 bf c5 75 31 3f da 8d 97 3d f6 0f 88 bf
       -0.6289048 0.6932033 0.07400103 -1.0629871
000150 a8 30 3a 3e ab 8f 8a 3b 25 d9 95 bb 6e 6f a0 be
       0.18182623 0.0042285523 -0.004573005 -0.31335014
000160 c3 5d b1 be 44 a8 97 be 47 f6 1e bf 80 36 a2 be
       -0.34641847 -0.29620564 -0.6209454 -0.31682205
000170 9b 61 68 3f 9d ad e7 3e 50 19 6b 3e cb 83 b8 bd
       0.90773934 0.45249644 0.22958875 -0.090095125
000180 dd 55 f6 be 90 09 db be c2 2e 61 3d a9 91 63 3f
       -0.48112383 -0.42780733 0.054976232 0.88894135
000190 48 c7 f4 3e 8b 68 0e 3f 0b a2 b4 3e 3b c3 04 be
       0.4780829 0.5562827 0.3527988 -0.129651
0001a0 19 c9 56 be 30 d3 63 bf 7f 6f 04 bf 1f d5 73 bf
       -0.2097515 -0.8899412 -0.5173263 -0.9524707
0001b0 b8 f2 8e 3e d7 ec b4 3d 26 a3 92 3e 1d 9f a6 bb
       0.27919555 0.08834236 0.28640097 -0.0050848857
0001c0 75 a4 ca be 0b 94 f2 3e 16 6a aa 3e 7c e4 a2 bf
       -0.39578596 0.47378573 0.33284062 -1.2725978
0001d0 2c 00 a6 bf 41 70 59 be e3 b2 4d 3e fd dd 62 bd
       -1.2968802 -0.21234228 0.20087771 -0.055387486
0001e0 ac 44 12 3f 51 e3 69 3e 4b 73 06 be 7a be 82 bd
       0.57136035 0.2284062 -0.13129918 -0.06383987
0001f0 46 d1 9c 3d 4b b7 59 bf 64 e2 19 bf 82 4e 8b 3e
       0.07657103 -0.8504531 -0.6011107 0.27208334
000200 35 37 72 be 61 74 1b bf 85 0f 71 bd 1e b6 da be
       -0.23653872 -0.60724455 -0.05885269 -0.4271707
000210 5d 35 39 be 61 ab 12 3e 98 83 00 3f 97 e9 8b 3e
       -0.18086763 0.14323188 0.50200796 0.27326652
000220 ee 30 24 bf 45 5d 0c bf f5 55 31 3e d6 ae 1c 3e
       -0.6413716 -0.5482982 0.17317946 0.1530107
000230 80 ba 0a 3f 7e e7 06 3f 1b 9e 9a 3e 09 f0 38 bf
       0.54190826 0.5269698 0.3019875 -0.72241265
000240 72 6e 9a 3e a8 ae 58 be e2 c6 db 3e 7b 17 2d bf
       0.30162388 -0.21160376 0.42925173 -0.67613953
000250 78 aa 4c 3c 44 29 0c bf 1b 9f 20 bf b4 0a c0 be
       0.012491815 -0.54750466 -0.62742776 -0.37508166
000260 ce 1e b0 bd bc d8 e3 3e 96 64 a1 3e 58 4d a7 bf
       -0.085996255 0.44501293 0.31522053 -1.3070478
000270 08 b4 81 3f db d8 3b bf e8 57 b4 bd b4 9d 38 be
       1.0133066 -0.7337777 -0.08805829 -0.18028909
000280 40 21 a2 be 2f 9d 60 bf e8 fe ad be e8 14 5f 3d
       -0.31665993 -0.87739843 -0.3398354 0.054463297
000290 1f cc 21 3e 0a 0b 14 be 10 58 ec 3c 95 c8 9f 3e
       0.15800522 -0.14457336 0.028850585 0.3120772
0002a0 4d e2 2b 3f f0 72 17 bf f6 cb c1 3f a1 51 3c bf
       0.6714218 -0.59159756 1.5140369 -0.73562056
0002b0 a4 f9 e7 bc 4c b0 d4 be 23 3c 6a 3e 06 d0 10 3e
       -0.02831728 -0.41540754 0.22874503 0.14141855
0002c0 3f 09 32 be dd a6 ac bf b5 60 a5 3e f3 c3 3f bf
       -0.1738634 -1.3488423 0.32300344 -0.7490837
0002d0 21 31 ed be 7f f6 85 be cb 7b c2 3e 33 4e 0a 3e
       -0.46326545 -0.26164624 0.37985072 0.13506393
0002e0 75 d7 82 be 2c 5a 81 bd 6f 0e 1b bc a3 17 bd be
       -0.25555006 -0.06316027 -0.00946389 -0.36932096
0002f0 1b a7 40 3f 82 5f ff 3d da 8b 21 3f 89 09 a1 3e
       0.7525498 0.124693885 0.6310402 0.31452587
000300 c3 22 ec be 10 f3 14 bf a2 0b ba be b7 f6 0f bf
       -0.4612027 -0.58183384 -0.36337 -0.5623583
000310 ba c5 91 bd f9 f8 94 3d 62 35 82 bd 53 81 15 be
       -0.071177915 0.0727405 -0.06357838 -0.14600115
000320 6c 87 15 3d 8b 0b 3d 3e 2c 8a 8d be 3d b8 aa be
       0.0365061 0.18461435 -0.2764448 -0.33343688
000330 35 fd f8 3e f7 b2 90 3e ba 85 a7 3e 6a 36 02 3f
       0.48630682 0.2826154 0.32719213 0.5086428
000340 27 a1 e4 3e 4c 2d 19 bf a8 5b a8 3e f5 71 35 bf
       0.446542 -0.5983474 0.32882428 -0.7087701
000350 b7 b4 a8 be e3 f4 86 bb 2e 3e bf be 29 dc 65 3e
       -0.32950374 -0.0041185482 -0.37352127 0.22447266
000360 f4 ed 03 bf cd 6b 9a bf 87 82 e8 3e 09 29 b9 be
       -0.5153496 -1.2064148 0.45412084 -0.3616412
000370 48 60 98 3e b1 bb 7c 3d d3 6d e5 be b2 cb fc 3d
       0.29760957 0.061702434 -0.44810352 0.12343539
000380 82 f4 05 bd 79 bc 5c 3f 30 c5 02 c0 4d 2a ef bf
       -0.032703884 0.86225086 -2.0432854 -1.8684784
000390 bb 55 12 bf 36 a1 51 be 7c 50 38 be 78 cf ac 3c
       -0.57162064 -0.20471653 -0.17999452 0.021095023
0003a0 42 97 55 bd a2 c1 ba bd 1d fa 45 40 b6 17 9c bf
       -0.052146204 -0.09118964 3.0933907 -1.2194736
0003b0 57 5b 25 3f 10 58 f1 3c 8e 66 35 3d 2a 52 11 3e
       0.645925 0.029460937 0.044287257 0.141915
0003c0 9f 94 cc 3d 8f ce 59 be d0 18 b6 3f 34 9f 0a 3f
       0.09989285 -0.21270202 1.4226322 0.54149175
0003d0 4d 05 26 bf 66 28 9c be 97 ca 9d 3e e6 54 6c 3d
       -0.6485184 -0.30499572 0.30818626 0.057698153
0003e0 bb 52 b1 be 86 8c 8c be ab 42 a7 bf 1f 9f 27 bf
       -0.3463343 -0.2745096 -1.306722 -0.65477175
0003f0 6f 95 fa 3e af 85 f2 bc d6 fa ca 3e 9e 76 20 be
       0.48942134 -0.02960476 0.39644498 -0.15670249

fc1.bias f4 [64]
000000 1b c5 e9 be 47 08 d3 be e1 d3 d2 bd ec f1 d3 3e
       -0.45658192 -0.41217253 -0.10294319 0.4139551
000010 c8 f0 84 be 5c 2f 4d be 55 08 f1 3d 59 90 ca be
       -0.25964952 -0.20037597 0.11769167 -0.39563254
000020 84 7c 8b 3c 0d d1 37 3e 11 da 12 3f d1 a3 a0 be
       0.017027147 0.1795084 0.5736399 -0.31374982
000030 a9 74 d9 be a3 1a c8 be 8a b9 0b 3f a6 97 0c bf
       -0.42471817 -0.39082822 0.54579985 -0.549189
000040 51 b5 bb bd 30 5d c4 be 28 47 33 be d3 b2 39 3f
       -0.09165443 -0.38352346 -0.17507613 0.7253849
000050 2f f0 e3 be 8d 74 cd be b0 fa b1 be 81 64 3f be
       -0.44519183 -0.40127984 -0.34761572 -0.18690683
000060 1f ac 17 bf c7 41 c4 be 2d 46 8b be 90 c2 59 bd
       -0.5924701 -0.38331434 -0.27201977 -0.053164065
000070 04 e1 27 3e e5 22 00 3d b2 f0 bd be 3b 6f b2 be
       0.1639443 0.031283278 -0.37097698 -0.34850487
000080 d6 96 ad be 70 7d c6 3e b0 12 06 bc ad 52 9e bd
       -0.3390414 0.38767576 -0.008183166 -0.07730613
000090 b0 44 d4 3e 5f b0 21 be 97 be ab be 0c de 44 be
       0.41458654 -0.15789936 -0.33543846 -0.19225329
0000a0 50 68 b6 3e ea 3b b8 be 3c 40 4b 3e 14 1f 21 3d
       0.3562646 -0.3598321 0.19848722 0.03933628
0000b0 4b 65 a0 3e 65 ef c5 3d a6 83 c0 3e d0 e8 18 3d
       0.3132728 0.096648015 0.3760044 0.037331402
0000c0 56 bc 12 be d8 fb 7e 3c 94 a8 88 3e 7f 31 01 3f
       -0.14329657 0.015562974 0.26691115 0.5046615
0000d0 df a0 46 be 87 aa 7a be 6a c1 5c be 0c 11 c4 3e
       -0.19397305 -0.24479114 -0.21558157 0.38294256
0000e0 6b 63 f1 3e 45 5d b6 3e 0a 83 8a 3e 8d b7 65 be
       0.47146162 0.35618034 0.270531 -0.224333
0000f0 80 dd b6 3b f7 d7 8d be 4e c9 e8 3e f0 0c 12 3f
       0.005580604 -0.2770383 0.45466083 0.5705099

fc2.weight f4 [64, 64]
000000 70 1b 72 3e 62 d9 f1 3e 3f 11 fe 3d 66 6e d6 3e
       0.23643279 0.47236162 0.12405633 0.41881102
000010 2a 63 92 3e 4b 7d 13 3e 4a d3 5b 3e df 28 5c 3f
       0.2859128 0.14403264 0.21467319 0.85999864
000020 a5 5d db 3e d0 b3 06 3f 05 43 0e bd 28 8f 21 3f
       0.42844883 0.5261812 -0.034731884 0.63109064
000030 3b 35 d8 3e e0 94 f3 3e 43 57 b5 3d 43 e3 fd 3e
       0.42228112 0.4757452 0.088545345 0.4958745
000040 97 5f fd bc 6c 55 ab 3e d9 7e 11 3e 41 7e 5e bd
       -0.03092937 0.3346361 0.14208545 -0.054319624
000050 e7 ed db 3e ee a9 58 3f d7 ff 49 3f 8c 10 20 3e
       0.42954943 0.8463429 0.78906006 0.15631312
000060 d9 82 30 3e bf 35 03 3e 4b 52 38 3f 42 f9 d9 3e
       0.17237414 0.12813471 0.7200057 0.4257298
000070 52 09 48 be eb ae a5 be 0d 71 94 3f dc 69 4a 3f
       -0.19534805 -0.32360014 1.1597 0.7906778
000080 88 cb dd 3c ba 74 04 3f f3 53 c4 bd c0 fc 8b 3d
       0.02707459 0.5174061 -0.095863245 0.068353176
000090 db da ed 3e 6e c1 22 3f 30 9d 35 3d 7b b8 70 3f
       0.46456036 0.635764 0.04433936 0.94031495
0000a0 e8 ad 80 3e 4f f2 c1 3e 2f 40 b6 3e 41 0b e8 be
       0.2513268 0.3788018 0.35595843 -0.45321086
0000b0 4c 2c 04 3f af 90 e7 3e d8 fb 0f 3f 08 4a 94 3e
       0.5163009 0.45227572 0.5624366 0.2896273
0000c0 65 c0 39 bf 6e 98 fb 3e b6 d0 91 3d e0 5e ae bd
       -0.72559196 0.49139732 0.071198866 -0.0851419
0000d0 40 b7 6e 3d 1b 2c e5 3e 89 4d 2f 3f 57 07 d3 be
       0.05828023 0.44760212 0.68477684 -0.41216537
0000e0 55 84 2e be d1 ba 05 3f 37 af 8d bd db 1d d2 3e
       -0.17042668 0.52238184 -0.06918185 0.41038403
0000f0 0d 1b 41 be 14 53 4b 3e 12 4e b7 be f8 08 07 bf
       -0.18857975 0.1985591 -0.3580175 -0.5274806
000100 b4 91 08 3e d8 af 37 3e a8 75 46 3e d0 63 00 3f
       0.13336831 0.17938173 0.1938082 0.501523
000110 3f cc 5c 3e f9 ae 47 3f 56 9f 48 3e 90 75 2a 3f
       0.21562289 0.7800136 0.19592032 0.66585636
000120 60 e6 17 bd f3 46 09 be d2 56 4c be 43 47 b1 3e
       -0.037084937 -0.13405971 -0.19954994 0.3462468
000130 5a 17 a5 3e 0d 5a 2a 3d d1 29 1e 3e f1 36 8f be
       0.32244378 0.041589785 0.15445639 -0.27971604
000140 f9 c3 b3 3e fe fa 9e 3e 01 68 1c 3f f7 8f 5f be
       0.35110453 0.31050867 0.610962 -0.21832262
000150 8c 98 47 3f ad bb 41 3f d4 0d 8a 3f ca 27 a5 bd
       0.77967143 0.75676996 1.078547 -0.0806423
000160 8e 62 c4 3e 1d c0 a3 3e cc ff 83 3f cd c7 1c 3e
       0.3835644 0.31982508 1.0312438 0.15310593
000170 cf 50 d4 be 64 52 e6 3e dd d9 81 3f c6 cd 6b 3f
       -0.41467902 0.44984734 1.0144612 0.9211086
000180 a0 e7 df 3d 1a 30 a4 3e e9 c6 67 be e3 0c cd bc
       0.10932851 0.3206795 -0.22634472 -0.025030559
000190 7e a2 b3 be fc 05 50 3f ca 4f af 3d 37 d4 eb 3d
       -0.3508491 0.8125913 0.085601404 0.11515086
0001a0 86 a6 88 3e e9 d5 e3 bd 95 85 32 3e c4 b5 c8 bd
       0.26689547 -0.111247845 0.1743377 -0.09800294
0001b0 93 86 3f 3c 75 a9 e2 3e 93 7e d6 be 02 33 f2 3e
       0.0116898 0.4426991 -0.41893443 0.4730454
0001c0 ad cc 89 3f c0 af 12 3f 62 8b 97 bf 00 54 61 be
       1.0765587 0.57299423 -1.1839411 -0.220047
0001d0 09 25 8a 3e e8 77 6e 3f 68 74 67 3f e7 2c 4b be
       0.2698138 0.9315171 0.90411997 -0.19841348
0001e0 7f b9 a6 3e 93 d8 9d 3d 88 a3 d1 bb 07 bf 66 3f
       0.32563397 0.07707324 -0.0063976683 0.90135235
0001f0 97 1c 0e be 51 7d 50 3f 6a d9 7c be 44 66 4a 3e
       -0.13878094 0.8144122 -0.24692312 0.19765574
000200 b5 7d 41 3e 3e 0d 73 3e ee 66 c4 bc b5 75 7a 3e
       0.1889561 0.2373552 -0.023974862 0.24458964
000210 cc 21 ef bc 97 de a5 3e 51 30 04 3e 36 24 d2 be
       -0.02919092 0.32396385 0.12909056 -0.41043252
000220 19 d4 3e 3d 59 47 34 3f 1f 0d e2 3a 4b 8e 7e be
       0.04658899 0.7042137 0.0017246342 -0.24858968
000230 a7 46 05 bf fd 29 bf bd d6 23 94 3e 9b cf b6 3e
       -0.5206093 -0.093341805 0.2893359 0.35705265
000240 6f 7c bf bc 01 3c 23 bf a4 4b 7e 3e 53 5f b1 be
       -0.023374764 -0.63763434 0.24833542 -0.3464304
000250 3c bc a2 3e fb 58 c8 be 30 57 de 3e 12 f3 13 3e
       0.31784236 -0.39130387 0.43425894 0.14448193
000260 32 a3 97 bd 61 5c 46 3e 1f 6f f2 3d fa 66 15 3e
       -0.07404174 0.19371177 0.11837601 0.14590064
000270 af 02 b9 bf 37 13 29 3e 27 db 23 bf 11 14 2a bf
       -1.4453944 0.16511236 -0.64006275 -0.6643687
000280 9c 78 80 3e ac cf ef 3e 61 e2 66 bf b3 9d ec bd
       0.25092018 0.4683813 -0.90189177 -0.11553516
000290 7f 7c ed be 3a 6f 21 be cc f7 ca 3d 29 fb 22 3f
       -0.46384045 -0.15765086 0.09910545 0.6366449
0002a0 4b 0a fb 3e 02 52 0e bb 8f 28 f5 3e c0 f3 29 3f
       0.4903129 -0.002171636 0.47882506 0.6638756
0002b0 72 0c b8 3f a0 a4 4c bf 2b 33 ba be e0 f9 2a 3f
       1.4378798 -0.799387 -0.36367163 0.6678753
0002c0 b6 48 03 3f 74 e5 d8 be fe 98 bf 3e c4 ac 2d bf
       0.51282823 -0.4236256 0.3742141 -0.67841744
0002d0 fb f3 81 3d 46 47 7b be 37 bf 8b be 67 b6 56 bf
       0.06345364 -0.24538907 -0.27294323 -0.83872074
0002e0 51 fd e3 3e 2b 97 9d be af 34 bd be 98 5f 35 3e
       0.44529203 -0.30779395 -0.36954257 0.17712247
0002f0 4d d1 a7 bc 56 28 d1 3d f6 54 02 3f 8b 3d 93 3e
       -0.020485545 0.102127716 0.5091089 0.2875789
000300 7d 52 2c 3d ce 8c 36 3e e2 e9 14 3e b7 49 97 3c
       0.042070854 0.1782715 0.14542344 0.018467767
000310 c5 67 ba 3e 05 93 6e 3e af 28 06 3f a6 86 58 3f
       0.36407295 0.23298271 0.5240583 0.8458046
000320 82 30 30 3f 9e e0 d5 bd 36 2b 58 3e eb 5c 70 3e
       0.6882402 -0.10443233 0.21110234 0.23472945
000330 2a 13 bc 3e 9b 3c 94 3e 31 51 14 3e fb 5f 10 3f
       0.3673337 0.28952488 0.14484097 0.56396455
000340 58 b1 07 3e 37 c3 b2 3e 87 9f f9 bd 62 4c d0 3d
       0.13251245 0.34914562 -0.121886306 0.10170819
000350 b4 b0 bd 3e 85 34 5b 3f 0f a7 77 3e cd 33 bc 3d
       0.37048876 0.85627013 0.24184822 0.09189568
000360 48 1e dc 3e 7e d7 04 3e 62 c7 93 3e a6 7b 92 3e
       0.42991853 0.12972829 0.28863055 0.2860996
000370 53 24 81 3b f1 4e 3a bf 0d 55 35 3e cc 3f 32 3f
       0.0039410978 -0.72776705 0.17708226 0.69628596
000380 11 ef ec 3d 13 8a d2 3e 86 8a 82 3d 5a 68 59 3d
       0.11569036 0.41120967 0.063740775 0.053078033
000390 9f d9 ba be 1c c6 2c 3f 06 90 fe 3d 7c 80 60 be
       -0.36494157 0.6748979 0.12429814 -0.21924013
0003a0 1f 05 07 3e 33 76 82 3e 58 00 7e bd 6f 33 98 bf
       0.13185547 0.25480804 -0.062012047 -1.1890696
0003b0 b9 c8 8a 3e a9 8c 36 3e fd 32 f2 3e 70 4e 1a 3f
       0.27106264 0.17827095 0.47304526 0.60275936
0003c0 2e a5 ab bf dc ec 1c 3f 95 1a c9 bd a9 22 02 bc
       -1.3409784 0.6129892 -0.09819523 -0.007942834
0003d0 0a ca af 3e 02 f3 24 3e fe b7 64 3e c9 42 19 be
       0.3433383 0.16108325 0.22335812 -0.14966883
0003e0 23 0d 79 be 5a d1 98 3e 45 e1 ca 3d 2d bf 81 3e
       -0.24321418 0.29847223 0.09906248 0.25341168
0003f0 03 30 43 bd 0e 55 aa bc bf 92 54 be 52 ae d2 be
       -0.04765321 -0.02079251 -0.20759104 -0.4114862

fc2.bias f4 [64]
000000 b1 5d 2d be 30 95 92 be 8b ea b1 3e 2a 3f 53 3d
       -0.16930272 -0.28629446 0.34749255 0.05157391
000010 8b 2b 90 3d 9a e8 2b bd ea 8a 94 3f ca 36 14 be
       0.07039555 -0.041969873 1.1604893 -0.14474025
000020 3d 17 2f 3e 1b 1a b3 3d e3 17 49 be 38 da f3 bd
       0.17098708 0.087452136 -0.19638018 -0.11906856
000030 a2 64 a1 bc 42 d4 98 be cf e7 8f bd 8b ba 69 3f
       -0.019701306 -0.2984944 -0.07026636 0.91300267
000040 5f 36 c8 3e b9 89 e1 bd 4c ee 9b 3e f0 54 14 be
       0.39103982 -0.11012597 0.30455244 -0.14485526
000050 16 c0 4f bd 30 fe 1a 3e ab 49 04 be 09 e4 fb 3e
       -0.050720297 0.15136027 -0.12918727 0.49197415
000060 64 ec 89 be 63 82 eb 3d 86 e9 cf bd 2c ec ce be
       -0.26938164 0.11499479 -0.10151963 -0.4041456
000070 e2 1c 0c be de 89 50 be c0 07 b7 3e 11 8f 6a 3f
       -0.13682893 -0.20365092 0.357481 0.9162455
000080 dc 7a a2 bd ac 68 80 bb 2e 04 90 be 11 55 f9 bd
       -0.0793359 -0.003918728 -0.2812819 -0.12174428
000090 19 b6 f0 3d ba 47 86 bd 29 c2 56 be 88 4c ca bd
       0.11753482 -0.065566495 -0.20972504 -0.098778784
0000a0 36 1d c4 bd 0b 13 bc bd d4 6b d8 3d 5c dd c4 3e
       -0.09575884 -0.0918332 0.105674416 0.38450134
0000b0 73 45 32 be e3 40 65 3d 60 30 b2 be a1 53 56 be
       -0.17409305 0.055970084 -0.34802532 -0.2093034
0000c0 8d 7f 56 be f0 7d 22 be d9 32 0a be 45 88 7c be
       -0.20947094 -0.15868354 -0.1349596 -0.24661358
0000d0 33 a1 22 3e 7c e8 79 bd 69 3c ae bd 6c 8c 0f be
       0.15881805 -0.06101273 -0.08507616 -0.1401841
0000e0 49 eb 08 3e 5e 4a 13 bb 6c c1 b3 be 6d 79 01 bc
       0.13371004 -0.0022474746 -0.35108507 -0.007902485
0000f0 8b 72 84 be 1b e8 e4 be 02 41 38 3f c3 78 33 be
       -0.2586864 -0.44708332 0.71974194 -0.17526536

fc3.weight f4 [4, 64]
000000 eb 33 22 bf 7d 0a 8a bf 48 8b 33 3f 0c 83 f1 be
       -0.6336047 -1.0784451 0.701344 -0.47170293
000010 31 81 d5 be 43 fd 05 bf 42 e4 b2 3f da e4 25 bd
       -0.41700128 -0.5233957 1.3975909 -0.040501453
000020 0f 3a a1 3f 3e 6e fd 3f 3c 7b 04 bf 16 36 93 bd
       1.2595843 1.9799268 -0.5175054 -0.071880504
000030 01 ab a1 3d 00 5b 04 bf e3 22 e4 3f 62 88 e8 3f
       0.078939445 -0.51701355 1.7823147 1.8166621
000040 3a ed 93 3f 4f 3b 00 bf 9e e8 5f 3f 6f 74 bf be
       1.1556771 -0.500905 0.8746432 -0.3739352
000050 d5 af 30 bf cf fd 37 3f d2 2e bf be 28 1e 79 bf
       -0.690183 0.71871656 -0.3734041 -0.9731164
000060 b7 57 04 bf a2 4c 22 40 e4 4f d2 3d 75 dc 97 be
       -0.5169634 2.5359273 0.10269144 -0.29660383
000070 d9 1e 00 bf 1c 69 0f bf 83 ee 3e 40 c1 d9 8c 3f
       -0.5004707 -0.5601976 2.9833076 1.1003953
000080 51 a8 6d bf 28 f4 23 bf a0 df 0a bf 68 40 dc bd
       -0.92834955 -0.6404443 -0.54247475 -0.10754472
000090 fb a6 01 bf 84 52 e5 be a9 38 6f 3e ce 19 be be
       -0.50645417 -0.44789517 0.23361458 -0.37129062
0000a0 6a bf e7 be 44 cd aa be bb 34 c1 be e3 7d 77 3f
       -0.45263225 -0.3335973 -0.37735543 0.9667646
0000b0 e6 72 30 3f 71 36 2d bd df 21 09 40 28 8d 00 bf
       0.6892532 -0.042288247 2.1426923 -0.5021539
0000c0 0f 7c 04 bf 99 46 2b bf 9e 66 08 bf ff f9 f5 be
       -0.517518 -0.669046 -0.5328158 -0.48042294
0000d0 1c 46 31 bf 44 6a f1 be 7f 16 b7 be 70 6d 07 3d
       -0.69247603 -0.47151387 -0.3575935 0.033063352
0000e0 6c 7c 6e bf ab 96 c1 be 12 b0 3c be de cf bc be
       -0.931586 -0.37810263 -0.1842654 -0.3687734
0000f0 3f 03 21 bf 6b 52 1a bf 9b d3 c0 3f 82 d5 03 bf
       -0.6289558 -0.6028201 1.5064577 -0.5149766
000100 23 ca e3 bd 35 5d 51 bf f7 4a 84 3f 01 5f 19 bf
       -0.11122539 -0.8178285 1.0335377 -0.5991059
000110 78 10 ea be 07 70 50 bf 20 16 b4 3f e5 8c 11 bf
       -0.4571569 -0.8142094 1.4069252 -0.56855613
000120 10 ac 84 3f ab ce 0c 40 79 ad dc be fc 9b 35 bd
       1.0365009 2.200114 -0.431011 -0.04433821
000130 d8 6c 56 3e 1d 6a a1 be 48 0d 19 40 2e 97 fb 3f
       0.20939958 -0.3152627 2.3914356 1.9655511
000140 90 0b 7b be 0a cf 66 be cd ce f5 3e c4 fa 1d bf
       -0.2451613 -0.22539917 0.4800934 -0.6171076
000150 5a 1b 95 be 5f db 88 3f 6a e2 ce be ef 96 dd bf
       -0.2912243 1.0691947 -0.40407115 -1.7311686
000160 dd c9 01 bf 20 b5 21 40 33 c7 56 3d 74 05 ca be
       -0.50698644 2.52668 0.052436065 -0.39457285
000170 a3 91 ba be 0f 2f 01 bf a5 b3 32 40 b9 45 6a 3f
       -0.36439237 -0.5046243 2.7922146 0.9151264
000180 b1 2b 5f bf e2 2d 47 bf 70 bc ec be cc 87 ff 3d
       -0.8717604 -0.77804387 -0.46237516 0.12477073
000190 5f e0 b0 bf 72 8d 0b bf 26 75 06 3e a4 94 b9 3e
       -1.3818473 -0.54512703 0.13130626 0.36246216
0001a0 6f ae 18 bf 92 47 fe be b9 c2 ec be 75 ef e3 3f
       -0.59641165 -0.4966398 -0.46242312 1.7807451
0001b0 26 6e 15 bf 45 ba ff 3c 4d 81 cc 3f 6e 10 58 bf
       -0.583712 0.03121675 1.597696 -0.8440007
0001c0 26 eb ec be c9 86 2e bf d1 09 fe be 7f d3 73 be
       -0.46273154 -0.68174416 -0.49616864 -0.23811148
0001d0 a2 af 62 be 9e 84 b2 be ac 63 ee be 9d ef dc bc
       -0.22137311 -0.34866804 -0.4656042 -0.026969725
0001e0 39 e7 8a bf 1d 25 97 be 6a 5e e5 be 69 71 40 bf
       -1.0851814 -0.29520503 -0.44798595 -0.7517305
0001f0 d8 6b d8 be 7c d2 dd be a5 33 d8 3f 37 21 c3 be
       -0.42269778 -0.4332465 1.6890761 -0.38111278
000200 77 e6 1f bf 87 4b cf be d1 29 79 bf cb bf 41 be
       -0.62461036 -0.4048731 -0.9732943 -0.1892082
000210 bb 80 71 3e 5f d7 c0 be 0a 52 9e 3f 7f 94 c8 be
       0.23584263 -0.37664315 1.2368786 -0.39175794
000220 a0 03 e7 3f 24 00 46 40 49 3f d2 be 2d 7a f1 3c
       1.8047981 3.0937586 -0.41063908 0.029477203
000230 10 32 23 3f c4 60 1a bf 98 8f 0c 3f fd c8 de 3f
       0.63748264 -0.603039 0.54906607 1.7405087
000240 4e bc 53 bf 84 ce 38 bf 7b 33 37 3f a9 31 00 bf
       -0.82709205 -0.7219012 0.7156293 -0.50075775
000250 41 21 22 3e 26 0d a1 3f a3 a4 07 bf b1 70 53 bf
       0.15832998 1.2582138 -0.5298559 -0.8259383
000260 18 73 be be a2 1f 31 40 88 fb e7 bd 1c 3d 21 bf
       -0.37197185 2.7675557 -0.11327273 -0.6298387
000270 e6 37 02 bf bc 09 ce be 5b 2f 07 40 38 57 c4 3e
       -0.50866544 -0.40241802 2.1122653 0.38347793
000280 b5 16 04 bf 00 99 1a bf b9 35 80 be 90 32 4f bd
       -0.5159715 -0.6038971 -0.25040987 -0.05058533
000290 65 de 9b be bb 9f 00 bf e4 1e aa 3f eb 6a e5 be
       -0.3044311 -0.5024373 1.3290677 -0.44808134
0002a0 df 29 0e bf c4 f1 2b bf c9 17 10 bf 04 c1 a4 3f
       -0.5553264 -0.6716578 -0.56286293 1.2871404
0002b0 68 63 8f bf 5e 64 86 bc f2 72 cd 3f 64 70 a6 be
       -1.1202211 -0.01640528 1.6050704 -0.32507622
0002c0 79 0d cd be b6 01 17 bf 72 0a 20 bf 02 71 14 bf
       -0.4004934 -0.58986986 -0.6251594 -0.57984936
0002d0 c7 90 59 bf 60 34 27 bf b3 fb bc be 66 21 19 3d
       -0.8498654 -0.6531429 -0.3691078 0.037385367
0002e0 6e 26 a4 be a0 17 2f bf cb db d4 be 02 47 02 be
       -0.3206057 -0.68395424 -0.4157394 -0.127224
0002f0 5b 52 9d be 23 11 ee be c1 6a ee 3f 0c 76 09 bf
       -0.30726895 -0.4649745 1.8626329 -0.5369575
000300 3d 5e de be fc 8e f7 be d5 cf 49 3e 8b fd 1f bf
       -0.43431273 -0.48351276 0.19708188 -0.6249625
000310 95 64 8b be a5 58 18 bf 60 6e c5 3f 48 00 19 bf
       -0.27225175 -0.5951026 1.5424309 -0.59766054
000320 e0 28 8e 3f b2 48 14 40 dc f6 01 bf 80 12 23 bb
       1.1106224 2.316937 -0.507673 -0.0024882853
000330 54 e8 2b be 64 93 81 be 98 a1 f6 3f 60 74 fe 3f
       -0.16787845 -0.25307763 1.9268064 1.9879265
000340 a1 7c db 3f b8 6b ad be 1b e8 9d 3f d7 d9 fa be
       1.7147409 -0.33871245 1.2336458 -0.48994324
000350 33 cd c3 be e1 7e 81 3f c4 09 c4 be 79 b9 4a bf
       -0.38242492 1.0116845 -0.382887 -0.7918926
000360 fd 15 d6 be 03 2a f6 3f 39 8a f5 bc c5 7c fc be
       -0.4181365 1.9231571 -0.029973136 -0.49313942
000370 ce 22 0b bf f8 cb 1e bf ad 8b 3b 40 e1 8b 06 3f
       -0.5434998 -0.6202998 2.9304001 0.5255719
000380 f0 02 20 bf 84 51 b7 be 70 39 07 bf 74 c6 75 bd
       -0.6250448 -0.3580438 -0.5282202 -0.060003713
000390 8c 59 35 bf af 0f eb be 2f 0d e2 3e 5f d3 59 bf
       -0.7083976 -0.45910403 0.44150683 -0.8508815
0003a0 9f 8b ed be 13 88 15 bf f4 dd ac be 80 39 8b 3e
       -0.46395585 -0.5841076 -0.33763087 0.27192307
0003b0 ca 9f 2c 3f 5d b7 9b bd 00 5c 0e 40 94 64 18 bf
       0.6743132 -0.07603333 2.2243652 -0.5952847
0003c0 99 63 f5 be f8 a2 9b be 00 55 1c bf e9 53 e0 be
       -0.4792755 -0.30397773 -0.610672 -0.43814018
0003d0 66 1d 3c be 1a 84 8f be 68 58 31 bf ab f8 95 ba
       -0.1837059 -0.28030473 -0.6927552 -0.0011441907
0003e0 84 fb 75 bf 7a a8 0f bf 3f 6b 06 bf b9 fd 01 bf
       -0.9608691 -0.5611645 -0.52507395 -0.50777775
0003f0 19 74 dd be 25 17 1e bf 8e 74 de 3f 5b 46 df be
       -0.43252638 -0.61754066 1.737932 -0.43608364

fc3.bias f4 [4]
000000 7a 1b d6 3e fe e3 f9 3d da a5 ea 3e 18 9e 02 3e
       0.41817838 0.12201689 0.4582966 0.1275562
