dqn/exercise-my/checkpoint.pth (torch_old, 21023 bytes, 6 tensors)

fc1.weight f4 [64, 8]
00000000: 801b 29be e87a 4abf b025 b2be 608e 35bf
00000010: 658d 963d fdb2 343e 9107 45be f183 d73e
00000020: 19e2 a53e 64db 963d 2034 25bd a109 7fbd
00000030: f29e 753e 20a2 91bf 5115 81bf c824 003e
00000040: 147d ba3e 26f0 933d 894e 563e 1d45 30bd
00000050: 64fa 983e 96fb 0c3f c7c6 f63d d50b f83e
00000060: 54b0 0b3e cc69 b1bd f332 a8be 3ac4 c1bf
00000070: 9a7b 1ec0 5dce 703e f314 6c3c f017 2a3e
00000080: 6893 9dbe 1613 52bf 25b6 22bf c829 00bf
00000090: 0caf c83d 5f7e 313e b8e7 113e c8d1 d23e
000000a0: 884a 3a3e 4454 9ebe 0588 2b3f af65 d2bd
000000b0: 8de8 77bf 678d dbbc d559 e13e 24e8 a93e
000000c0: f969 8fbe 9530 233d ad3e 5cbd a424 9cbe
000000d0: 8418 163f ce6e c63e 76b9 ec3e 506f 13bf
000000e0: 5de7 503e 11a5 65be 4f38 6e3c a70e 3abf
000000f0: f1f5 603e 6cd7 733e 2f20 893d 8dda 743e
00000100: 2096 8bbe 094b 8fbd 9f5b 693d 7a4c babe
00000110: c86d fa3e 4dcf 263f 9e42 a23e 6b98 0fbf
00000120: 3f96 c23e 1358 2b3f f05b 873f 1040 243f
00000130: 71a8 1dbf 3f5b afbe 18e5 8dbc 9cbd 80be
00000140: 7751 f1be e770 653f ad48 0a3e 869f 8ebf
00000150: 1eab a03e 5bb3 9a3e 2a8d 5e3e bd08 56be
00000160: 4687 1bbd 013d 4b3d 415c 163f 4ccd 423f
00000170: 6034 0340 c5f8 00bf 8691 4fbd 79ca 0dbe
00000180: b4ee 86bd 9a38 0a3c 9750 2cbe 711e aebe
00000190: 0eab 0e3f bbd0 933f 8420 1f3e 1c80 31be
000001a0: 3528 45be 5b68 64bf c1e0 a9be 1441 4dbf
000001b0: bbdf 5f3e e10a 273e 45e2 f8bd 2dc1 a93e
000001c0: 5a5e 2bbf 6a0c 8f3f 5eaa 383f 0cbf 78bf
000001d0: 0d66 91bb 4c02 5b3f 850f 543e 8728 323e
000001e0: 7fc5 223e 4b9c 993c 4bbc 16be fab5 42bc
000001f0: 5d94 f63e aa56 a1bf 287d 5abf 2739 30be
00000200: 4740 b6bc b0bd bfbf 4b33 6d3e 252f 30bf
00000210: 11e3 d0be 4732 27bc f4c6 a33e 73b8 fdbb
00000220: 1341 84bd 2e72 48bc 5b42 943b b90a 903e
00000230: 5f07 c23e 1554 293f 7e70 393f f188 93be
00000240: b2b0 32bf 9d68 083e 1d72 a53e 60f8 6e3e
00000250: f011 63be 8525 80be e9ba 94be 750e 62bf
00000260: b9cf c2bd 6d39 1b3f 28d9 febd 2760 81bf
00000270: 709d 153f b955 1bbc a6be 683e 1e12 47be
00000280: 0aab 37be 7f72 22bf 51da a8be 40f8 92bf
00000290: 967f 443e 4912 3c3e db9b 1d3d 0761 063e
000002a0: 16e9 62bd 80d7 0abf e939 333e 45cf 37bf
000002b0: 67a8 cb3e 5aa2 8f3e 1487 b2be a5e8 a43e
000002c0: 0994 153e b29f 03bf e799 953e 5401 42bf
000002d0: 5590 fcbe e4fe 87bd 63e9 e93e 9222 893d
000002e0: 5894 6abd e4b6 05be 5961 80be 430d 5ebf
000002f0: e7e8 1cbf 40ef 713d 2814 c63e 5614 483e
00000300: c634 fabe f6d4 3dbf 7653 73be c183 3cbf
00000310: fc19 77bd ff03 3b3e 0eec df3d 1b5e e33d
00000320: 3488 ab3d a572 29be c8d1 b2be 064c 12bf
00000330: df5c 303e b88f db3d 0ee9 14be 72c8 0a3f
00000340: 0450 8a3e b4d4 04bf ecf3 8abc f950 54bf
00000350: 3c2b 333e 0508 86bc 2c36 7f3d 0db1 5e3d
00000360: c958 aebd 38c6 2dbe 0ace 713e 5df8 d9be
00000370: a249 bd3d 463f a93e aafa a93e c1f4 633e
00000380: ba76 5abf 5dcd 443f ff5c 41bf c1a5 e8be
00000390: d64f 48be 7f33 2fbe 12df 983c 0dc1 6f3e
000003a0: b64c bdbd e3bb 733f 6dca 1b3f 8b04 8dbe
000003b0: 8d60 873f f921 ebbe 121c 173d caef 023e
000003c0: c49a e43d d3b4 923f 3bac 0a3e 3539 68be
000003d0: 650e 433f 97b7 12be 0432 e63e 9d78 79bf
000003e0: 437d 8cbe c063 0ebd 5726 15bf 02f5 5abe
000003f0: a6e2 443f 4f97 053d fa83 08bf 880b 90be
-0.16514397 -0.7909379 -0.34794378 -0.7092037 0.073511876 0.17646404 -0.19241168 0.4209285
0.3239906 0.07366064 -0.040332913 -0.062265042 0.23986414 -1.1377602 -1.008463 0.12514031
0.36423552 0.07223539 0.20928396 -0.04303466 0.29878533 0.5507139 0.120496325 0.48446527
0.13641483 -0.08662757 -0.3285137 -1.5138009 -2.476294 0.23516221 0.014409292 0.16610694
-0.30776525 -0.8206037 -0.6355918 -0.50063753 0.097990125 0.17333363 0.1424855 0.41175675
0.18192494 -0.30923665 0.67004424 -0.10273301 -0.9683922 -0.026800824 0.4401385 0.33184922
-0.28010538 0.039841253 -0.05377071 -0.30496705 0.5863116 0.38756412 0.46235245 -0.57591724
0.20400758 -0.22426249 0.014539792 -0.7267861 0.21968819 0.23812646 0.06695592 0.23911496
-0.27262974 -0.06996734 0.056972142 -0.36386472 0.4891188 0.65160066 0.3169145 -0.56091946
0.38005254 0.66931266 1.0574932 0.6416025 -0.61585146 -0.34249303 -0.017321154 -0.2514466
-0.47132465 0.896254 0.13504286 -1.1142433 0.31380552 0.30214962 0.21733537 -0.20901771
-0.037970804 0.049618725 0.5873452 0.7609451 2.0500717 -0.5037959 -0.05067589 -0.13846768
-0.06588498 0.008436346 -0.16827618 -0.340076 0.5572976 1.1548074 0.15539747 -0.17334026
-0.19253619 -0.89221734 -0.33179286 -0.80177426 0.2186269 0.16312744 -0.121525325 0.33155194
-0.66940844 1.1175663 0.7213496 -0.97166514 -0.004437214 0.8555038 0.20709045 0.17398272
0.15895651 0.018751284 -0.14720266 -0.011884207 0.48160067 -1.2604573 -0.85347223 -0.17209302
-0.022247447 -1.4979763 0.23164098 -0.68821937 -0.40798238 -0.010204858 0.31987727 -0.0077429353
-0.064577244 -0.012234254 0.0045245118 0.2813318 0.3789625 0.66143924 0.72437274 -0.28815416
-0.69800866 0.13321157 0.32313624 0.23336935 -0.22174811 -0.25028625 -0.2904885 -0.8830331
-0.09512276 0.606345 -0.12443763 -1.0107468 0.58443356 -0.009480887 0.22728977 -0.19440505
-0.1793634 -0.6345596 -0.32979062 -1.148201 0.19189295 0.1836635 0.038478713 0.1312295
-0.05539807 -0.54235077 0.1750256 -0.71800643 0.39776918 0.28053552 -0.3486868 0.32208744
0.14607252 -0.5141555 0.2921898 -0.75783277 -0.49328867 -0.066404134 0.45685872 0.06696047
-0.057270378 -0.13058048 -0.2507427 -0.86738986 -0.6129288 0.059066057 0.38687253 0.19539008
-0.48868388 -0.7415308 -0.23762307 -0.7363854 -0.060327515 0.18263243 0.10933696 0.111019336
0.08375588 -0.1654764 -0.34925675 -0.5714725 0.17222928 0.107207716 -0.14542028 0.54212105
0.27014172 -0.5188706 -0.016962014 -0.82936054 0.17496961 -0.016361246 0.06230752 0.054368068
-0.08513028 -0.16970146 0.23613754 -0.425723 0.0924256 0.33056086 0.33199054 0.22261335
-0.8533741 0.7687586 -0.75532526 -0.4543896 -0.19561705 -0.17109488 0.018661056 0.23413487
-0.09243147 0.9520857 0.6085575 -0.2754253 1.057634 -0.45924357 0.036892004 0.12786785
0.11162332 1.1461433 0.13542263 -0.22678073 0.7619384 -0.14327846 0.44960034 -0.97449666
-0.27439317 -0.034763098 -0.58261627 -0.21382526 0.7690834 0.032615002 -0.5332638 -0.28133798

fc1.bias f4 [64]
00000000: b8ae 79be 97f2 86be d18e 2bbc 501a 5b3d
00000010: 3533 b9be 12cc b0bd 5bc6 b03d 4c2e 203e
00000020: 2c36 583e dc75 9c3e 6341 4d3f 0423 6e3b
00000030: 75f3 d5be b13b 6bbe bf4a 2d3f 32db 38bd
00000040: 56e9 423d 0156 2fbe 206e 013f d26e 8c3f
00000050: 8d81 8cbe 0c75 5ebd 789b 98be 8090 46be
00000060: b54d a8be d976 47be 44bb 8cbe 9447 b93d
00000070: 8a3e a5be b7e0 b7bd 1717 30be 80bd cfbe
00000080: 11c2 3dbe 8c48 c93e 688e d2be 60a1 453e
00000090: f84a dfbd 8433 00be 97be abbe bb5e 17be
000000a0: b589 873d cf16 9bbe 5187 3b3e c493 36be
000000b0: d82a 3dbe 4a11 07be e99b 843e 5684 b23d
000000c0: 0e79 563d cbdf 46bb 6108 393e 3d1e 873c
000000d0: 5898 3e3d adf7 8e3d 8006 9d3d b722 3cbe
000000e0: 8e16 9a3e 219b 36be a301 cd3d 788b 67ba
000000f0: 1ce8 923d 007a 45be 5454 5a3e 98ff 3b3e
-0.24383056 -0.26356956 -0.010471062 0.05349189 -0.3617188 -0.08632673 0.08631583 0.15642661
0.21114415 0.3055867 0.801779 0.003633679 -0.41787305 -0.22971989 0.6769218 -0.045130916
0.047585808 -0.17122652 0.5055866 1.097132 -0.2744259 -0.054310843 -0.29806113 -0.1939106
-0.32871786 -0.1947893 -0.27486622 0.090468556 -0.32274276 -0.08978408 -0.17196308 -0.40574265
-0.18531062 0.3931316 -0.41124272 0.19299841 -0.10902971 -0.12519652 -0.33543846 -0.1478223
0.066180624 -0.3029084 0.18313338 -0.17829806 -0.18473375 -0.13190189 0.259002 0.08716647
0.05236154 -0.0030345793 0.18069603 0.01649391 0.046532005 0.06980834 0.076672554 -0.18372618
0.30095333 -0.17832614 0.10010078 -0.0008832733 0.071731776 -0.1928482 0.21321231 0.1835922

fc2.weight f4 [64, 64]
00000000: 4e2e 623e f970 863e 3f8f 813d e182 09be
00000010: 43af 1e3d 091c 3a3e beab 713e a982 82bd
00000020: c7b4 e83d f9b2 5e3f bf2b a3bc f9ca 0cbf
00000030: ea95 b13e 1c50 de3e 8eed 063d 3979 f93d
00000040: 437b f7bd 3559 903e 99b2 6ebc 6d48 10bd
00000050: 37be f63e 1b48 6c3e fd33 f53e 8f26 1b3e
00000060: 6ee6 bd3e 7991 8e3d 24ee d33e 5ef7 403e
00000070: 17bf fd3e 5f4d d0be 5eda ccbe 1f54 0b3f
00000080: 75e5 cabc cd1c f43c aad3 273f 5d39 ecbd
00000090: 32c0 db3e 359e 993e 309d 353d dc17 183f
000000a0: 8584 f13d 1231 763e df1c fd3e 4248 2abe
000000b0: b5b2 c53e 9abc c83e 3317 c03e 0715 723e
000000c0: 69b5 74bf c3bd 2a3e a64d 923f ca43 eebe
000000d0: e250 8d3e 0847 a9be 836b 2bbe 492c 2b3f
000000e0: 5014 2d3d 0f1d d0be 5a73 1f3e 7f04 1dbe
000000f0: 97d7 14bd dbe1 4fbd 3d91 59be b9fa 7f3d
00000100: 8e88 363e b412 a03e 55d3 243e fbf2 95be
00000110: eff8 d2bc 6b61 a13e cab6 be3e ffa4 8d3d
00000120: 19d1 023e d8ec 073f 9f75 143e 13c8 3fbf
00000130: 90ad d33e 1f15 6f3e 60b5 493c 9c33 05bd
00000140: 3017 edbc 5684 c63e 531c 95be 349b 7b3d
00000150: 1a9f 153f 019f d83d e26d c23e 12ae e0bc
00000160: 0a07 173f 6a74 243e d9be db3e eac0 f33d
00000170: cb22 ea3e 88ce 41be 428d 04bf 982c 303f
00000180: 8b58 a93d e61d 113e ba10 483f 41e0 d83d
00000190: bfe9 ad3e 72b5 a53e ca4f af3d 07f2 0c3e
000001a0: 5a99 4e3e f65c 2d3e cc35 a03d 4f15 43be
000001b0: de42 2f3f e439 c33e 821e e43a 5222 c73e
000001c0: 2e42 b6bf ed36 173d e80f ac3f e53b d6be
000001d0: fbf0 b73e 4a56 76be 9b7f a4be a09c d83e
000001e0: 0e58 5c3d b293 e9be f99e ee3d 0bff c9bd
000001f0: fb56 54bb a97e 143e 5137 8dbe 9ee2 94bd
00000200: 9c54 743e 3845 dd3e dc8f 653d 6752 73be
00000210: 06ff a13c 4d7f ba3e a185 b53e 53ad 693b
00000220: 47c0 383a a180 1a3f 48ff e73d 3cb8 01bf
00000230: b281 333e baba c73e 8b9d ea3d 6dfd c03e
00000240: 060a 3b3e a215 d63d b74b 71bd 1a0f 9abd
00000250: 955b 093f 6f03 a33e f02a df3e bd6e b3bc
00000260: 70c7 233f 28e8 7a3d edec ec3e f4fd 4b3e
00000270: 0277 2e3f 83ad 56be f03e f6be 756a 453f
00000280: b61a 573d 6a9f 33be dbdc 393f 513b 44be
00000290: 7d4d e8bc 378b e93e ccf7 ca3d 4ac8 cc3e
000002a0: 20e6 eb3d 17f9 bf3e 212d 8a3e 04d8 49bf
000002b0: 3733 8a3e 8d98 b93e 13d1 793e f560 ce3e
000002c0: 67b3 87bf 5e33 8b3e 9042 7c3f ac04 e0be
000002d0: ec96 dd3e 9e26 10be f980 d2bd c816 fa3e
000002e0: 6e20 d03d 35f2 c3bd a970 bd3d dea6 cc3d
000002f0: 5f8d 043e f627 e33d 0fdc 2ebe 9267 0a3e
00000300: a0c3 493e f7ee 073f 4c97 5f3e 99d7 1fbf
00000310: 9ebc 3f3e 3a58 8e3e aa01 0d3f dbf5 473d
00000320: e7f0 153f 27eb 643e f9e1 2d3e 2e2d 29bf
00000330: f211 9f3e 6d8d ae3e 85b8 123d 939e 083f
00000340: b107 c33d 0603 c33e 2d23 a6be 9d16 f1bd
00000350: 10b1 143f cda6 b33e 5b36 443e 33a4 3e3e
00000360: 4394 2a3f e3bf 523e 56a9 df3e 8ceb f63d
00000370: 8250 5c3f 8d47 f9be 7be0 c9be 782e 1c3f
00000380: 1d1a 5b3e 2fe7 ffbc 20e2 1e3f 8833 eabc
00000390: 3efe 003e b1a9 073f 0690 fe3d 3f9d 3a3e
000003a0: e984 3f3e 78ea 853e 25e3 113d 7175 19bf
000003b0: 0256 1a3f f3f9 8d3e dbd5 9a3e 9c12 ce3e
000003c0: 4f34 b6bf 084f a53e 5be1 573f 8f71 93be
000003d0: 6ee0 563f 20a2 3dbe 7196 103b 5e70 883e
000003e0: baa9 8bb9 8287 7a3d ea79 c73d 223f 593d
000003f0: 1d9b 1a3e 1590 823e 6223 1bbd 6ba0 6d3c
0.22087976 0.26258066 0.0632615 -0.13428833 0.03874136 0.18174757 0.2360067 -0.06372578
0.113626055 0.8699184 -0.01991832 -0.5499721 0.34684688 0.43420494 0.032941394 0.121813245
-0.12084057 0.2819306 -0.014568948 -0.03522532 0.48191997 0.23074381 0.47891226 0.15151428
0.37089866 0.069613405 0.41392624 0.18844363 0.49559852 -0.4068403 -0.4001035 0.54425234
-0.024767617 0.02979889 0.6555735 -0.11534379 0.4292007 0.30003515 0.04433936 0.59411407
0.11792854 0.24042156 0.4943609 -0.16629127 0.38612905 0.39206392 0.375177 0.23640834
-0.9558931 0.16673951 1.1429946 -0.46536094 0.2760077 -0.33062005 -0.16740231 0.6686445
0.0422557 -0.4064717 0.15571347 -0.15333746 -0.036338415 -0.050752502 -0.2124681 0.062494967
0.17825529 0.3126427 0.16096242 -0.29286942 -0.025753466 0.31519637 0.37248832 0.06916236
0.12775077 0.5309577 0.14497994 -0.74914664 0.41343355 0.23347901 0.01231131 -0.03251992
-0.02894172 0.3877284 -0.29123172 0.06142731 0.58445895 0.105772026 0.3797446 -0.027426753
0.58995116 0.16060033 0.42919043 0.1190203 0.4572967 -0.18926442 -0.5177804 0.68818045
0.08268841 0.14171562 0.7815052 0.10589648 0.33967397 0.32364994 0.085601404 0.13764201
0.20175686 0.16929993 0.07822761 -0.19051097 0.68461406 0.38130105 0.0017404112 0.38893372
-1.4238946 0.036917616 1.3442354 -0.4184257 0.3592604 -0.24056354 -0.32128605 0.42306995
0.053794913 -0.45620495 0.116514154 -0.09863099 -0.0032400477 0.14501442 -0.27581266 -0.07269786
0.23860401 0.43216872 0.056045398 -0.23761903 0.019774925 0.36425248 0.35453513 0.0035656288
0.00070476945 0.6035252 0.11327988 -0.50671744 0.17529944 0.3900965 0.1145583 0.3769335
0.18265542 0.10453345 -0.058910098 -0.07522412 0.5365537 0.31838557 0.43587446 -0.02190339
0.6397619 0.061256558 0.4627451 0.19921094 0.6815034 -0.20964627 -0.48094893 0.77115566
0.052515708 -0.1754128 0.72602624 -0.19163252 -0.028357262 0.45614025 0.09910545 0.39996558
0.11518502 0.37494728 0.26987556 -0.7884524 0.269922 0.362492 0.24396162 0.40308347
-1.0601624 0.27187628 0.98539066 -0.43753564 0.43279207 -0.14077231 -0.10278506 0.48845506
0.101624355 -0.09567682 0.09250004 0.09992765 0.12944554 0.11091606 -0.17076133 0.13516071
0.19703531 0.53099006 0.21835059 -0.6243835 0.18724295 0.27801687 0.55080664 0.04881845
0.5857071 0.22355329 0.16980733 -0.66084564 0.3106838 0.34092274 0.035820503 0.53366965
0.095229514 0.38088244 -0.32448712 -0.11771891 0.58082676 0.35088196 0.1916136 0.18617325
0.6663248 0.20581011 0.4368388 0.12056646 0.86060345 -0.486874 -0.39429078 0.61008406
0.2139668 -0.031238167 0.6206379 -0.028589025 0.12596986 0.52993304 0.12429814 0.18224047
0.18703045 0.26155448 0.035617013 -0.59944826 0.6028749 0.2772976 0.30241284 0.40248573
-1.4234713 0.3228686 0.8432824 -0.28797576 0.839362 -0.18518877 0.0022062326 0.2664823
-0.00026638602 0.061164387 0.0974005 0.053038724 0.15098234 0.2550055 -0.03787554 0.014503579

fc2.bias f4 [64]
00000000: 29d5 37be 2d5c 65be 4cfe 57be ca91 533d
00000010: 38d5 4a3e 9b87 96bd c355 1dbd 7847 23be
00000020: e8d9 573c 3451 e4bd 6436 f8bd 35f8 34be
00000030: 4099 2bbe 2760 05be 156d b9bd 1e9a 833f
00000040: 7853 043f 21dc 54be 65d7 3fbe 9710 eabd
00000050: 1137 42bd 270f 10be 9048 65be 4ba5 8a3d
00000060: 69dc 01bc b4ba 153e f235 b8bb e91e 8bbe
00000070: f6da 183d cb4c df3b d84c 86be d813 633d
00000080: d3cc 22be df9e 3a3d 0c64 2abe 9f11 e03b
00000090: d34b 10be 09b2 debd 4c24 aeba 14f3 af3e
000000a0: 63db 42be 7f88 843e 504a 6cbc 0d98 0a3f
000000b0: 5f43 68be e87b c83d c081 ddbd c12c e1bd
000000c0: 583d 9cbd 2670 893e e08c 653e 009d afbd
000000d0: 9b6e a8be 9465 debd cdee 7c3e c1d0 11be
000000e0: 3fb2 c63e 78c8 acbd a846 5e3e 2091 e2bc
000000f0: ec1f 28be f513 92be fdfd 04bd 77b1 96bd
-0.17952408 -0.22398444 -0.210931 0.051652707 0.19807899 -0.073500834 -0.038411867 -0.15945232
0.0131745115 -0.11148301 -0.12119749 -0.17672808 -0.16757679 -0.1302496 -0.09054009 1.0281408
0.51689863 -0.20787098 -0.1873451 -0.114289455 -0.047415797 -0.1406828 -0.22390962 0.067698084
-0.007926085 0.14622003 -0.005621665 -0.2717202 0.037318192 0.0068145744 -0.26230502 0.055438846
-0.15898447 0.045561668 -0.16639727 0.006838038 -0.14091425 -0.10873801 -0.0013285964 0.3436514
-0.19029002 0.25885388 -0.014422014 0.5413826 -0.2268195 0.09789258 -0.108157635 -0.10994864
-0.07628888 0.26843375 0.22417021 -0.08574867 -0.32896885 -0.10859218 0.2470047 -0.1423979
0.38807866 -0.08436674 0.2170664 -0.027657092 -0.16418427 -0.2853085 -0.032468785 -0.073580675

fc3.weight f4 [4, 64]
00000000: dd50 b0be a28d a2be 47a0 c0be 1ea1 a7be
00000010: 4283 adbe a248 afbe 5bc4 6d3d fedf 0ebe
00000020: b803 c7bd 4c0a 1d3d 0e57 91be 602f 99be
00000030: 8da1 15bd e82f 89be 4efb 0dbf 9903 b93f
00000040: b666 cd3e 0e60 b3be af19 c7be 1dd7 92be
00000050: 8c21 b5be 65d2 373d 42e3 4bbe a19e 86bb
00000060: 7e96 61bd 4a6b fd3e fbe2 02be 7f97 b9be
00000070: 65aa a7be 6037 a9be f35d f4be 53a7 1140
00000080: c543 a2be 3a85 61be 74d3 5ebe 0490 89bd
00000090: 8672 87be 4556 4fbe c9ed 60be 405e f63f
000000a0: 6204 7cbe 2c1b 533c a78b 4abe 017b c43f
000000b0: e59c 90be ccf3 05bd daa0 983d 06d1 b2be
000000c0: 3a2d cbbe 963e 8f3f 8898 86bf 879c 4abf
000000d0: 837c e43a 20b9 f7be dbab 7cbf 5860 433d
000000e0: 9973 f1be 86ee 88be 999b 923f 008e 85be
000000f0: 5201 c7be 9b71 8bbe 6450 8b3d 3613 abbe
00000100: 580e 8abd d9f9 b1be 7b5c 2cbe c459 d6be
00000110: 3c29 9ebf 8cd1 c4be 5c71 e7bc 307a c9be
00000120: f977 c33d 3ed9 a3bd f830 dabe 16a1 9abe
00000130: 1117 a03d ffd8 58be fb7a 04be 1fc6 a43f
00000140: 5349 323e ef5e 3bbe 8e0a 83be 417d a4be
00000150: 4b8d fabe 3b4a 203f bcab 2bbe 5eb3 dbbd
00000160: deab e93d 69dc 163f b926 0cbd 7c80 6fbe
00000170: d6ab d5be f4f0 e2be b38d 39be 67a1 0540
00000180: ac00 a7be 50f6 18bf 0885 bbbe ce9a fe3e
00000190: 9530 14bf e3d7 f1be eb1a 463c 4450 0740
000001a0: 8db3 dabe b2e2 e9be 707d 04bf 525f d73f
000001b0: 6f38 0abf 601a 2f3c ccfa d03d 3754 dbbe
000001c0: 2790 aebe 4b7d a93f f8b8 b3bf fd5f 95be
000001d0: e849 57bd e60c 05be d258 a0bf 0054 0cbd
000001e0: e8eb c5be 6691 64be fee6 903f f4d4 fcbe
000001f0: e66a d4be 664e 5cbe d897 f93d 1156 9fbe
00000200: 10b6 15bf 28ae c8be c8b0 bdbe 40e4 debd
00000210: 61a7 a13d 86ef 12be 456f 783c 1e79 ddbe
00000220: 4c08 af3d aadd 983d 58a2 50be dddb c6bd
00000230: 116d 233d 7023 c0be 2a2d 8fbe 3a7f bd3f
00000240: f360 663f 8e1c 0cbf c326 e7be b456 cbbe
00000250: 4fa4 e13d 3ce6 93bf 91f1 0abf 1887 a93e
00000260: 90b6 cdbf 3b48 843f 3fbc 48bf fb32 00bf
00000270: e091 9abe 1a01 853d 235f 61bf 22ad ff3f
00000280: 4994 5abe 9652 87be f54d 2cbe ff18 76be
00000290: f3f1 82be f08c 9abe 3c1a 853e e947 ee3f
000002a0: 44cd d1be d299 fdbf d833 bebe 0c38 cf3f
000002b0: 9f37 99be c0fa 4dbb e96c 61bd bc21 c3be
000002c0: 93a3 72be b12c 6ebf ab04 93bf 8eb9 7dbf
000002d0: 976c 51bf c773 19bf 8947 72bf f915 923c
000002e0: 703e ef3e 1459 ecbe 2fe5 0540 b55c 5dbd
000002f0: 8091 e5bd 9acf b0be 39fe 4a3d c405 b0be
00000300: ba67 5ebe 03e5 42bd 06ad b3be 675c 02bf
00000310: 3e67 c2be d8a6 c4be 8096 143d 88e5 fcbe
00000320: 5047 933c 92b9 91bc 1ec0 d2be 4467 9dbe
00000330: 271d 7cbd 81f2 1bbf 20d4 0cbf b153 f73f
00000340: f077 173f 6cac 24be 28d7 ccbd bc4f c1be
00000350: cc1c bdbe a35c c83e 966f 98be 7530 df3d
00000360: a2b6 07bf f1bc 6f3f 49e4 2ebf 5f93 b9be
00000370: 2b50 8fbe d088 afbe 3f6c 8bbe 346a f43f
00000380: 3ea6 b0be 7655 a5bc eb56 ebbe 780a 44bf
00000390: 88ab a9be d998 c1be 0bb2 3bbf 496a ce3f
000003a0: ce5a 8cbe b1eb fa3e 9918 b4bd 0a94 973f
000003b0: cc52 38be 9064 f3bd 1868 2d3d 7149 75be
000003c0: d157 c7be 221c 963f 4d3a a7bf 0186 29bf
000003d0: 5eae b63e e545 0cbe 2705 dbbf 40c0 763c
000003e0: 4b27 273e 7976 aebe 6a28 c63f d6ef e2be
000003f0: fa70 dcbe 2644 e9be e0e7 7b3d 594e 9ebe
-0.34436694 -0.31748682 -0.37622282 -0.3274011 -0.33889204 -0.34235102 0.058048587 -0.13952634
-0.09717506 0.038339898 -0.2838673 -0.29918957 -0.03653102 -0.26794362 -0.55461586 1.4454223
0.40117425 -0.3503422 -0.38886783 -0.28679743 -0.35377157 0.044878382 -0.1991091 -0.0041082655
-0.05507516 0.49495918 -0.12781899 -0.36248395 -0.32747188 -0.3305006 -0.47727928 2.2758377
-0.3169233 -0.22023478 -0.2176035 -0.06716922 -0.26454562 -0.20247753 -0.21965708 1.9247513
-0.24611047 0.012884896 -0.19779836 1.5350038 -0.282447 -0.032703206 0.07452555 -0.34925097
-0.39682943 1.1190975 -1.0515299 -0.7914509 0.0017432127 -0.48383427 -0.9869973 0.047699302
-0.47158507 -0.2674448 1.1453735 -0.260849 -0.38868195 -0.27235112 0.06802443 -0.33413094
-0.06741017 -0.3476093 -0.16832153 -0.4186536 -1.2356334 -0.38441122 -0.028252296 -0.39351034
0.09544367 -0.0800042 -0.42615485 -0.30201024 0.078168996 -0.21176527 -0.12937538 1.2872962
0.17410783 -0.18297933 -0.2559399 -0.3212681 -0.48935923 0.62613267 -0.1676473 -0.10727571
0.11409734 0.5893007 -0.034216616 -0.23388857 -0.41732663 -0.44324458 -0.1812046 2.0879762
-0.326177 -0.59750843 -0.36624932 0.49727482 -0.5788663 -0.4723502 0.012091379 2.114274
-0.4271511 -0.45680767 -0.517539 1.6825964 -0.5399236 0.010687441 0.10204086 -0.42837688
-0.34094355 1.3241361 -1.4040823 -0.29174796 -0.052560717 -0.12993202 -1.2527106 -0.034259796
-0.38656545 -0.2232109 1.1320493 -0.4938122 -0.41487807 -0.21514282 0.12187165 -0.3112035
-0.5848093 -0.3919537 -0.37048936 -0.10883379 0.07893253 -0.14349183 0.0151632475 -0.43256468
0.085465044 0.07464154 -0.20374429 -0.09709904 0.039898936 -0.37527037 -0.27964145 1.4804451
0.8999168 -0.5473107 -0.4514676 -0.39714587 0.110176675 -1.1554637 -0.5427485 0.3311088
-1.6071339 1.0334543 -0.7841224 -0.5007779 -0.3018942 0.06494351 -0.8803579 1.9974711
-0.21345629 -0.26430196 -0.16826613 -0.24032973 -0.25575218 -0.30185652 0.25996578 1.8615695
-0.40976918 -1.9812567 -0.3714893 1.6188979 -0.29925248 -0.0031429976 -0.055035505 -0.38111675
-0.23695211 -0.93036944 -1.14858 -0.9911126 -0.8180632 -0.5994229 -0.94640404 0.017832743
0.46727324 -0.4616171 2.0921133 -0.05404349 -0.112093925 -0.34533387 0.049558852 -0.343794
-0.21719256 -0.047581684 -0.35092944 -0.50922245 -0.37969393 -0.38408542 0.03627634 -0.49393868
0.01797834 -0.017788682 -0.411622 -0.30742848 -0.06155124 -0.60916907 -0.5501118 1.9322416
0.59167385 -0.16081399 -0.10001975 -0.37756145 -0.36936033 0.39133176 -0.29772633 0.10897914
-0.5301305 0.93647677 -0.68317086 -0.36245248 -0.2799085 -0.34284067 -0.27231023 1.9094911
-0.34501833 -0.020182353 -0.4596475 -0.76578474 -0.3313868 -0.37811926 -0.73318547 1.6126186
-0.27413028 0.49007943 -0.08793754 1.1842053 -0.18000335 -0.11884415 0.0423356 -0.23953797
-0.38934186 1.1727335 -1.3064667 -0.662201 0.35679907 -0.13698538 -1.7110947 0.015060484
0.16323583 -0.34074762 1.5481083 -0.44323605 -0.43054944 -0.45559806 0.06150043 -0.3091915

fc3.bias f4 [4]
00000000: eb86 12bd 74b0 7a3e 6129 133f a603 53bd
-0.0357732 0.24481374 0.57485014 -0.05151715
