cross-entropy/checkpoint.pth (torch_old, 1054 bytes, 3 tensors)

fc1.weight f4 [16, 2]
00000000: b4d0 1140 d183 4d40 ae1a 0240 cf36 1b3f
00000010: 634b 1c40 f4a4 8bbf 9fb7 2d3f 19de 10c0
00000020: 1375 94be 32b3 813f d3da 2fc0 eac7 5a3e
00000030: 2a4d 983f bd8d e8bf 55bb d5be 3bdb 933f
00000040: c941 4fc0 00a1 973f 3ac1 30c0 59d7 853f
00000050: 1224 77bd 2eb7 fc3f fd45 22c0 a45b 20c0
00000060: e90b 0abf d546 3fc0 bf5a 28c0 fdfb 143f
00000070: 692c d43f e5f9 2ec0 a704 aabe 8171 b6bf
2.2783632 3.2111704 2.0328784 0.60630506 2.4421012 -1.0909715 0.6785831 -2.2635558
-0.2899557 1.0132811 -2.747731 0.21365324 1.1898549 -1.8168255 -0.41744485 1.1551279
-3.2383902 1.1846008 -2.7617936 1.0456344 -0.060337134 1.9743402 -2.5355217 -2.5055933
-0.53924423 -2.9886982 -2.6305387 0.58197004 1.6576053 -2.7340024 -0.33206674 -1.4253389

fc1.bias f4 [16]
00000000: 84b6 ae3f 36d2 19bf 6460 2440 c2b1 383f
00000010: 9d8d 333f 93cc f1bf e1e1 f13f a785 96bd
00000020: c4e7 f6bf 9288 e5bf ba20 c8bf e340 8cbe
00000030: 08d4 ec3f 7bfe 0ebf f780 01c1 5a72 1c3f
1.3649449 -0.6008638 2.5683832 0.72146237 0.7013796 -1.8890556 1.8897058 -0.07349711
-1.9289479 -1.7932303 -1.5634987 -0.27393255 1.8502207 -0.55857056 -8.093986 0.61111987

fc2.weight f4 [1, 16]
00000000: e743 0440 fa2a 45c0 d07d 09c0 7a0f 80c0
00000010: a504 1640 8f4e 64be 9787 0640 87e7 89bf
00000020: 455a 44c0 0349 4940 9151 4a40 0b66 29c0
00000030: 6d64 2dbe 257b 3d40 e6a4 56be b059 723e
2.0666444 -3.080748 -2.148304 -4.001889 2.3440335 -0.22295593 2.1020257 -1.0773782
-3.0680096 3.1450813 3.1612284 -2.6468532 -0.1693284 2.9606411 -0.20961341 0.23667026
